…
        "\n",
        "model.compile(loss='categorical_crossentropy', metrics=['accuracy'], optimizer='adam')\n",
        "\n",
        "model.summary()"
      ],
      "execution_count": null,
      "outputs": [
        {
          "output_type": "stream",
          "text": [
            "Model: \"sequential\"\n",
            "_________________________________________________________________\n",
            "Layer (type)                 Output Shape              Param #   \n",
            "=================================================================\n",
            "conv2d (Conv2D)              (None, 24, 14, 128)       1280      \n",
            "_________________________________________________________________\n",
            "max_pooling2d (MaxPooling2D) (None, 12, 7, 128)        0         \n",
            "_________________________________________________________________\n",
            "dropout (Dropout)            (None, 12, 7, 128)        0         \n",
            "_________________________________________________________________\n",
            "conv2d_1 (Conv2D)            (None, 10, 5, 128)        147584    \n",
            "_________________________________________________________________\n",
            "dropout_1 (Dropout)          (None, 10, 5, 128)        0         \n",
            "_________________________________________________________________\n",
            "conv2d_2 (Conv2D)            (None, 8, 3, 128)         147584    \n",
            "_________________________________________________________________\n",
            "dropout_2 (Dropout)          (None, 8, 3, 128)         0         \n",
            "_________________________________________________________________\n",
            "conv2d_3 (Conv2D)            (None, 6, 1, 128)         147584    \n",
            "_________________________________________________________________\n",
            "dropout_3 (Dropout)          (None, 6, 1, 128)         0         \n",
            "_________________________________________________________________\n",
            "flatten (Flatten)            (None, 768)               0         \n",
            "_________________________________________________________________\n",
            "dense (Dense)                (None, 34)                26146     \n",
            "=================================================================\n",
            "Total params: 470,178\n",
            "Trainable params: 470,178\n",
            "Non-trainable params: 0\n",
            "_________________________________________________________________\n"
          ],
          "name": "stdout"
        }
      ]
    },
    {
      "cell_type": "code",
      "metadata": {
…
